…
2019-03-17 17:08:02.899771: I tensorflow/core/common_runtime/gpu/gpu_device.cc:1115] Created TensorFlow device (/job:localhost/replica:0/task:0/device:GPU:0 with 10400 MB memory) -> physical GPU (device: 0, name: GeForce GTX 1080 Ti, pci bus id: 0000:19:00.0, compute capability: 6.1)
WARNING:tensorflow:From /home/neuralflux/miniconda3/envs/sdc/lib/python3.6/site-packages/keras/backend/tensorflow_backend.py:3445: calling dropout (from tensorflow.python.ops.nn_ops) with keep_prob is deprecated and will be removed in a future version.
Instructions for updating:
Please use `rate` instead of `keep_prob`. Rate should be set to `rate = 1 - keep_prob`.
_________________________________________________________________
Layer (type)                 Output Shape              Param #
=================================================================
image (InputLayer)           (None, 160, 320, 3)       0
_________________________________________________________________
to_yuv (Lambda)              (None, 160, 320, 3)       0
_________________________________________________________________
normalization (Lambda)       (None, 160, 320, 3)       0
_________________________________________________________________
cropping2d_1 (Cropping2D)    (None, 80, 320, 3)        0
_________________________________________________________________
L1_conv (Conv2D)             (None, 76, 316, 24)       1824
_________________________________________________________________
elu_1 (ELU)                  (None, 76, 316, 24)       0
_________________________________________________________________
L1_pool (MaxPooling2D)       (None, 38, 158, 24)       0
_________________________________________________________________
batch_normalization_1 (Batch (None, 38, 158, 24)       96
_________________________________________________________________
L2_conv (Conv2D)             (None, 34, 154, 36)       21636
_________________________________________________________________
elu_2 (ELU)                  (None, 34, 154, 36)       0
_________________________________________________________________
L2_pool (MaxPooling2D)       (None, 17, 77, 36)        0
_________________________________________________________________
batch_normalization_2 (Batch (None, 17, 77, 36)        144
_________________________________________________________________
L3_conv (Conv2D)             (None, 13, 73, 48)        43248
_________________________________________________________________
elu_3 (ELU)                  (None, 13, 73, 48)        0
_________________________________________________________________
L3_pool (MaxPooling2D)       (None, 6, 36, 48)         0
_________________________________________________________________
batch_normalization_3 (Batch (None, 6, 36, 48)         192
_________________________________________________________________
L4_conv (Conv2D)             (None, 4, 34, 64)         27712
_________________________________________________________________
elu_4 (ELU)                  (None, 4, 34, 64)         0
_________________________________________________________________
batch_normalization_4 (Batch (None, 4, 34, 64)         256
_________________________________________________________________
L5_conv (Conv2D)             (None, 2, 32, 64)         36928
_________________________________________________________________
elu_5 (ELU)                  (None, 2, 32, 64)         0
_________________________________________________________________
batch_normalization_5 (Batch (None, 2, 32, 64)         256
_________________________________________________________________
flatten_1 (Flatten)          (None, 4096)              0
_________________________________________________________________
FC1_steer (Dense)            (None, 128)               524416
_________________________________________________________________
elu_6 (ELU)                  (None, 128)               0
_________________________________________________________________
dropout_1 (Dropout)          (None, 128)               0
_________________________________________________________________
FC2_steer (Dense)            (None, 64)                8256
_________________________________________________________________
elu_7 (ELU)                  (None, 64)                0
_________________________________________________________________
dropout_2 (Dropout)          (None, 64)                0
_________________________________________________________________
FC3_steer (Dense)            (None, 16)                1040
_________________________________________________________________
elu_8 (ELU)                  (None, 16)                0
_________________________________________________________________
dropout_3 (Dropout)          (None, 16)                0
_________________________________________________________________
OUT_steer (Dense)            (None, 1)                 17
=================================================================
Total params: 666,021
Trainable params: 665,549
Non-trainable params: 472
_________________________________________________________________
WARNING:tensorflow:From /home/neuralflux/miniconda3/envs/sdc/lib/python3.6/site-packages/tensorflow/python/ops/math_ops.py:3066: to_int32 (from tensorflow.python.ops.math_ops) is deprecated and will be removed in a future version.
…
